part_model.tflite (tflite, 11044 bytes, 4 tensors)

dense_3/bias f4 [5]
000000 09 a2 a4 3d a2 8b 09 3f b8 50 11 bc 4c 50 29 be
       0.08038718 0.5372869 -0.0088693425 -0.16534537
000010 be 6d 06 bf
       -0.52511203

dense_2/bias f4 [128]
000000 48 c8 a9 3e 82 da 75 be f9 54 3d bd a4 f6 cb 3e
       0.33160615 -0.24009135 -0.046223614 0.3983661
000010 4f 29 86 3f 9f 4d 2f 3f 3f 79 e7 be f8 b6 3b 3e
       1.0481356 0.68477815 -0.4520969 0.18331516
000020 69 2d 23 bf b2 0d 16 3f 19 27 d5 be d8 5c 0b bf
       -0.63741165 0.5861465 -0.41631392 -0.54438543
000030 94 2d 50 3f 6f 5e e1 be 10 27 1b bf ef 47 93 be
       0.81319547 -0.4401736 -0.6060648 -0.28765818
000040 b0 6e 80 3f e7 e4 b0 be eb 76 22 3e 24 b9 50 be
       1.0033779 -0.3454964 0.15865676 -0.20383126
000050 7e 83 1b 3f f1 55 09 bf 3b 5e a1 be ef 1c 2f bd
       0.60747516 -0.5364676 -0.31517205 -0.042752203
000060 26 d5 16 bf 33 a0 11 3f b8 bb 84 be ba cd 88 3e
       -0.5891899 0.5688507 -0.25924468 0.26719457
000070 5e 43 b9 3e a9 db c9 3e 72 7f 5a 3e 77 24 7c ba
       0.3618421 0.394254 0.21337679 -0.0009618471
000080 98 8b 91 be 2a d4 1c 3d 35 f9 e0 3d 8d 0e 0e bd
       -0.28426814 0.038288273 0.109850325 -0.034681845
000090 44 fb 85 3e 81 5b 62 3e ff 62 ba 3e 58 6f 15 3f
       0.26168263 0.22105218 0.36403653 0.5837302
0000a0 b9 0f 9b ba 3b 29 0c 3f 37 b8 08 3f fe 10 42 3e
       -0.0011830247 0.5475041 0.5340609 0.18951795
0000b0 96 57 5b be 01 c3 00 3d f1 26 98 3a 26 54 04 bf
       -0.2142013 0.03143597 0.0011608285 -0.516909
0000c0 77 90 95 be 5f 99 16 3f c0 9a 18 be 25 49 c8 3e
       -0.2921178 0.58827776 -0.14902782 0.39118305
0000d0 9e 89 65 bc ca 21 0e bf e9 0a 15 bf 15 70 0d 3f
       -0.014009861 -0.5552031 -0.5821977 0.5524915
0000e0 0a 45 3a 3d 4e c9 55 bf 55 80 ed be 00 00 00 00
       0.045475997 -0.8351029 -0.46386972 0.0
0000f0 80 5a 49 3e 73 f3 42 b9 6e 2e 30 bf 9f 3e 8c be
       0.1966343 -0.00018591974 -0.68820846 -0.27391526
000100 de 86 d8 3d 65 f0 59 be c6 d4 91 3d 95 8a 98 be
       0.10572599 -0.2128311 0.071206614 -0.2979323
000110 f4 36 ad 3e 37 b3 45 be 2e 66 38 bd 3c 6a a7 3e
       0.33830988 -0.19306646 -0.04501932 0.32698238
000120 83 f7 2c 3f 3f e6 79 be 7e 8b 80 be 5f 20 22 bd
       0.6756517 -0.24404238 -0.25106424 -0.039581653
000130 51 5e 80 3c 85 cb 8d be 34 4f a5 3e c4 75 98 bc
       0.015669974 -0.27694336 0.3228699 -0.018610843
000140 c6 4d 15 bb 46 40 d0 bd 2a 1a f5 bd d2 df a8 bd
       -0.0022781952 -0.10168509 -0.11967881 -0.08245815
000150 f8 ea 0a 3f f0 cf f8 be 6b 4a 60 bf b5 a0 22 bf
       0.54264784 -0.48596144 -0.8761355 -0.6352647
000160 d4 04 db 38 8e 85 1b bf 73 02 37 bb 58 45 76 3e
       0.00010443633 -0.60750663 -0.0027925044 0.2404989
000170 35 51 66 3e 4b 3e 8a bd 5d 48 b6 3e 48 e7 02 bd
       0.22491916 -0.06750163 0.35602084 -0.03195885
000180 02 4e 7c bd 0f f4 20 3e 00 34 e7 3c 1a 15 61 bd
       -0.06159783 0.15718101 0.028223038 -0.054951765
000190 07 36 ad be 93 b8 a3 bc 60 c6 07 bf d3 11 ee 3e
       -0.33830282 -0.019985473 -0.5303707 0.46497974
0001a0 90 8a 9b be ed 44 24 3f c0 e3 ee bd 22 e6 e7 3e
       -0.30379152 0.6416767 -0.116645336 0.45292765
0001b0 f2 8f 20 be ad 49 a2 3e 6b f3 18 3f 8f e3 fa bd
       -0.15679911 0.31696835 0.59746426 -0.122504346
0001c0 59 87 2f be de ba 39 b9 67 34 6f be b0 24 40 3f
       -0.17141475 -0.00017712588 -0.23359834 0.7505598
0001d0 7b ad f0 3a 43 12 2b 3d 71 5f a1 be 91 6c 23 3a
       0.0018362248 0.041765463 -0.3151813 0.0006234134
0001e0 5b be fa 3e 6e 17 be ba bc 57 d4 3e ea 6b 0e 3e
       0.48973355 -0.0014502832 0.41473186 0.13908353
0001f0 65 e6 a5 be 19 e0 37 3f 65 92 01 3f 4b a2 b5 3d
       -0.3240234 0.7182632 0.50614005 0.088688456

sequential_1/dense_2/MatMul f4 [128, 13]
000000 4d 73 56 be 86 8f b5 3d 0d 7a d0 3d 43 4a 2b 3e
       -0.20942421 0.088652655 0.10179529 0.16727547
000010 ca 5f 76 bd 64 e1 73 3e 76 62 14 bc c8 11 e1 bc
       -0.060149945 0.23816448 -0.009056678 -0.0274743
000020 40 27 1c be e7 ed 1c 3e da 22 f0 3d 32 df be bd
       -0.15249348 0.15325128 0.117253974 -0.09319915
000030 70 c2 6a 3c 29 69 02 be c7 4a ba 3d 2e 21 a5 3d
       0.014328584 -0.12735428 0.09096294 0.08062969
000040 bb a2 12 be 06 d5 0c bc 1c 60 24 3e 30 2a bf 3d
       -0.14319889 -0.008595711 0.16052288 0.093342185
000050 1a 31 42 3d 91 f5 06 bd 9f e9 8f 3d 7c d9 29 be
       0.04741011 -0.032949034 0.070269816 -0.1658687
000060 74 b5 32 3e f0 6a 13 bd 90 67 b0 bd bc c1 25 bd
       0.17452031 -0.035990655 -0.08613503 -0.040467963
000070 71 7b 5a bd d3 e4 5b be b7 e9 7f 3d 11 83 73 3e
       -0.05334038 -0.21474008 0.062478747 0.23780467
000080 33 32 2b be c1 e0 8b bd ba 78 e6 bd 80 67 f1 bb
       -0.16718368 -0.06829978 -0.112534955 -0.0073670745
000090 6c 0c 36 be ea 2d 42 be 88 97 e3 bc 02 59 20 3e
       -0.17778176 -0.18962827 -0.027782217 0.15658954
0000a0 7b 22 3e 3d b3 e1 0d be 40 e7 78 bd 76 e9 d6 3c
       0.046419602 -0.13855629 -0.060767412 0.02623437
0000b0 64 66 de 3d 2b 2d 01 3c 3e 0f 3a 3d a3 47 cf bd
       0.10859373 0.007884304 0.045424692 -0.101210855
0000c0 15 bd 1c 3e f0 49 fc 3d 60 30 6f 3c 88 1a 92 3c
       0.15306504 0.1231879 0.014598936 0.017834917
0000d0 60 7e 86 be 42 1b 06 be f3 b7 85 bd 4f e0 0f be
       -0.2626829 -0.13096336 -0.06529226 -0.1405041
0000e0 a4 46 38 3e 84 8d d6 be db 2a 22 3d 45 41 c8 bd
       0.17995697 -0.41904843 0.03959165 -0.09778074
0000f0 88 f8 29 be 36 3b 16 be f8 68 b6 bc f0 fa 40 be
       -0.16598713 -0.14671025 -0.02226685 -0.18845725
000100 a4 7f 80 3d 5f 3b 3f be c6 4f 21 3e 1a e1 90 3d
       0.062743455 -0.18674992 0.15753087 0.07074185
000110 10 20 e5 bd 2e 47 aa bd ba e6 7b 3e d8 ae 52 3e
       -0.11187756 -0.08314358 0.24599734 0.2057451
000120 09 71 1a be 75 f2 46 3d ad e7 d5 bd 0a ba 48 be
       -0.15082182 0.04857107 -0.10444579 -0.19602218
000130 10 0b 87 bc 36 14 1e be 7b 7b 11 bd 9c fb d3 3d
       -0.016484767 -0.15437397 -0.03551815 0.10350725
000140 80 a9 28 3e b6 fa a7 bc d2 0b 74 bc 10 bc 64 bd
       0.16470909 -0.02050529 -0.014895396 -0.055843413
000150 7d b8 55 bd 4b f3 93 3d 26 f3 9d bc ac e1 45 3e
       -0.052177895 0.07224139 -0.019280981 0.19324368
000160 86 9a 6c 3e 70 1c 93 3d 08 73 3e bd 3c f5 5d bb
       0.23105821 0.071831584 -0.04649642 -0.0033868095
000170 d6 c7 a4 bd 56 95 57 3e 68 a6 a5 3d f9 e5 bf 3d
       -0.08045928 0.21053061 0.0808838 0.09370036
000180 1b 55 51 be 32 77 4d 3e 58 37 65 be c5 56 f8 bd
       -0.20442621 0.20065 -0.22384393 -0.12125925
000190 d1 34 0d 3e cf 7a 06 3e 08 8c 19 bd 81 3d f4 bd
       0.13789679 0.13132785 -0.03748706 -0.119257934
0001a0 56 c3 86 3e 95 c3 29 be 6f ac 40 bc 0b 20 be bb
       0.26320904 -0.16578515 -0.011759861 -0.0058021597
0001b0 6f 37 8f bb 25 cd ac 3d 49 7a 84 be 84 98 2d 3d
       -0.004370622 0.08437566 -0.25874546 0.04238178
0001c0 37 92 83 3e a3 d1 66 bd 37 ce 2a 3c ac fb 1c 3d
       0.2569749 -0.05635227 0.010425142 0.03832595
0001d0 0a ed 40 be db 08 08 3d 63 b0 85 3d c5 34 a8 3d
       -0.18840423 0.03321157 0.06527784 0.0821319
0001e0 1e 35 13 be 35 35 8c 3d 37 34 08 3e eb 67 2e 3e
       -0.14375731 0.06846086 0.13301168 0.17031829
0001f0 93 51 94 3e 78 42 56 be 41 99 20 3e dc 65 12 bc
       0.28968486 -0.20923793 0.15683462 -0.008935418
000200 50 5c f8 bc 00 63 47 3a cc 2e f8 3d d1 00 ad bc
       -0.030317456 0.00076059997 0.12118301 -0.021118553
000210 e6 da be bc 19 82 a9 3d 2a b3 1a 3e 60 67 0a 3e
       -0.023297738 0.08276767 0.15107408 0.13515997
000220 c1 89 1f bd 1f e7 dd 3d 73 36 8b 3e 95 45 0b 3e
       -0.03894973 0.108350985 0.2718998 0.13600762
000230 2e 71 eb 3d d9 a5 fe bd 18 61 3c 3e df f0 14 3e
       0.11496197 -0.12433977 0.18396413 0.1454501
000240 bf 2c cb 3d 4a 0d 96 3c e6 34 9e 3d 7e 93 e0 bd
       0.09920644 0.018316884 0.07724933 -0.10965632
000250 a2 19 94 3d d9 69 92 3c 24 5a 3d 3e 2e b4 c5 bd
       0.072314516 0.017872738 0.18491417 -0.09653507
000260 ac 4c 41 3e 72 43 14 3e b8 a2 9f bd a3 7d dc bd
       0.18876904 0.14478853 -0.07794708 -0.10766151
000270 4f 2e 1d bd 0e c4 6c be a4 4e b4 be 2e 4d 03 3e
       -0.03837424 -0.23121664 -0.35216248 0.1282241
000280 8c c9 73 be 71 20 39 be 99 76 57 3d a5 ba 01 3e
       -0.23807353 -0.18078782 0.052603338 0.12668855
000290 2e b9 06 be 47 75 88 bd f4 39 80 bd d6 c4 ec bd
       -0.13156578 -0.06662994 -0.06261054 -0.11560981
0002a0 00 8f 4f bd 4e 83 33 be 07 38 8f bb 27 c9 66 3e
       -0.050673485 -0.17530558 -0.0043706927 0.22537671
0002b0 e4 d0 58 be 03 e9 9e 3d a2 05 c4 3d e9 b0 c3 bd
       -0.21173435 0.07759287 0.09571387 -0.09555227
0002c0 4b b5 61 3e 7f 6b a1 3c ba e4 8a bd c3 f9 cd bd
       0.22041814 0.019704578 -0.067819074 -0.10057404
0002d0 f0 16 11 be 7d 48 f4 bd 2b 69 8f 3e 9d 69 81 bd
       -0.14168906 -0.119278885 0.28009924 -0.06318972
0002e0 c7 77 3d bd 55 25 01 bd ce de c4 bc d5 67 a6 3d
       -0.046256807 -0.031529743 -0.024032023 0.08125273
0002f0 23 c4 cc bc f9 b2 82 be bd b3 c5 bd b8 8f 04 3d
       -0.024995869 -0.2552717 -0.09653423 0.032363623
000300 d4 5d 34 be f8 d8 3d 3e 2f ad ca bd fe e9 ce 3d
       -0.17613918 0.18539798 -0.098963134 0.10103224
000310 9c 02 1a 3e 47 8b 3d bd 1a ae 30 3e 80 84 d0 3d
       0.15040058 -0.046275403 0.17253914 0.10181522
000320 0e 47 c6 3d 66 c5 90 3d 01 ea e5 3c 57 5d a9 bd
       0.09681521 0.07068901 0.028065683 -0.08269756
000330 11 a3 7b bc 9f 05 81 bd f8 40 4d be c4 fb 49 3e
       -0.015358702 -0.062999 -0.20044315 0.19724947
000340 d4 f5 b9 bd 6c 6d 58 be 39 46 93 bd 53 ba 1a be
       -0.09080091 -0.21135491 -0.07191128 -0.1511014
000350 34 7e 51 bd 25 60 5e 3e 23 c1 ff bd 9e de 25 be
       -0.051145747 0.21716364 -0.1248801 -0.16198203
000360 9d 72 e8 bd 9c 22 25 3e 5f a4 b1 bd 87 42 45 be
       -0.11349986 0.16126484 -0.086739294 -0.1926366
000370 0c 67 16 3e 7b 91 0e 3d 26 ea bb 3c b0 88 09 3e
       0.14687747 0.03480671 0.0229388 0.13431048
000380 b9 a0 4b 3d 6d c0 cb bb c7 e2 9b bc 0d 35 1d be
       0.049713824 -0.0062180073 -0.019029034 -0.15352269
000390 e4 73 5e be 52 91 33 3e cc c1 0c be 7e ec 3a 3e
       -0.21723896 0.17535904 -0.13745803 0.18254277
0003a0 20 57 b5 3c 6a 6d a2 bd d4 b2 26 3e 28 c4 a0 bd
       0.022136271 -0.07931025 0.16279155 -0.07849914
0003b0 71 5c 3a be d9 83 02 3e 94 2b b8 3d 5d 87 55 3c
       -0.18199326 0.12745608 0.08992687 0.013032761
0003c0 2a bb 58 be 2b 05 a4 3d a7 84 57 bd 99 f6 7c 3d
       -0.21165147 0.08008798 -0.05261674 0.06175861
0003d0 52 69 08 be b6 f9 22 3e 5c 9b a9 3d 3c 33 e8 bc
       -0.13321427 0.1591557 0.082815856 -0.028344743
0003e0 27 f8 8a bd 91 ea 76 3e f2 b7 c5 bd 5b d1 08 3e
       -0.067856126 0.24112917 -0.096542254 0.13361113
0003f0 da 94 2a 3d 54 71 73 3d 56 7a 77 bd 13 19 38 be
       0.041645862 0.05943425 -0.060419403 -0.17978315

sequential_1/dense_3/MatMul f4 [5, 128]
000000 2b 84 20 be fc 37 6a bc 7d 03 25 be 08 54 37 3e
       -0.15675418 -0.014295574 -0.16114612 0.17903149
000010 6e 93 70 3f 2e 7a 88 bd 4f 6c c9 3b 66 e3 94 3d
       0.9397496 -0.06663929 0.0061469446 0.07269935
000020 2c c0 95 bd aa 64 a7 3c 06 de 83 3a d5 49 b8 3d
       -0.073120445 0.020433743 0.0010060675 0.08998457
000030 23 07 c1 3e 85 d6 80 3d 24 24 c1 3d 0f 33 28 be
       0.37700757 0.06290916 0.094307214 -0.16425727
000040 47 a5 2e 3f 8e 5d 38 be b6 8a 0d be fb ea 1d 3e
       0.68220943 -0.18004438 -0.13822445 0.15421669
000050 63 aa f4 3e ad cd 5f 3d 75 85 90 3d 72 65 69 bd
       0.47786245 0.054639507 0.07056705 -0.05698151
000060 17 4f f3 bd 9f ca 56 3e 5c 33 07 3e 43 88 6e 3e
       -0.118803196 0.20975731 0.13203186 0.23294167
000070 41 29 89 3d 1e 34 10 bc 9e 8e 88 bd 91 cd de bd
       0.06697322 -0.008801488 -0.06667827 -0.108790524
000080 20 31 e5 3d 4f 7e 2d be e9 71 45 3e 8e 74 42 be
       0.111910105 -0.16942714 0.19281735 -0.18989775
000090 b0 50 90 bc e5 16 ae bb 95 e2 7e be a9 87 89 3d
       -0.0176166 -0.005312788 -0.24891122 0.06715328
0000a0 bc 7d d3 be c7 3b 4e 3e 26 ad fe 3e a1 9a c3 bd
       -0.41306865 0.20139991 0.49741477 -0.095509775
0000b0 9b 3d fd 3c d8 91 86 be 48 94 79 be 2b e9 2b 3e
       0.030913165 -0.26283145 -0.24372971 0.16788165
0000c0 d7 1d 98 3b a4 06 b5 3c c2 3c ef bc 13 72 d2 bd
       0.004642229 0.022097893 -0.029203776 -0.10275664
0000d0 15 31 23 bf a4 20 0a 3e 5d e4 db 3b 5f 68 17 3d
       -0.6374677 0.13489014 0.0067105726 0.03696477
0000e0 d3 fe 56 be 85 64 49 bd 10 f5 36 3e 10 80 c7 3d
       -0.20995645 -0.04916813 0.17866921 0.09741223
0000f0 08 69 27 3e 28 f9 3b bf e4 0d ba 3d 8f b9 07 3e
       0.1634866 -0.7342706 0.09084681 0.13254379
000100 e6 52 0a 3d 73 4a f6 3b c3 b3 80 be b1 10 b2 3d
       0.033770464 0.0075161993 -0.25137147 0.0869459
000110 18 70 2f 3d 53 62 8d 3e 6b 6d 03 bf 14 e2 0a 3e
       0.04283151 0.27614078 -0.51338834 0.13562804
000120 f9 41 ef 3d d5 6b 1a bd 56 30 88 be 55 4b a8 3d
       0.11682505 -0.037700493 -0.26599377 0.082174934
000130 2f 23 45 be b6 02 43 3e c1 79 6f be 49 06 09 be
       -0.19251703 0.19044003 -0.23386289 -0.13381304
000140 3a d9 0c be c7 58 08 3d c9 36 de bd c6 67 5e be
       -0.1375474 0.03328779 -0.10850293 -0.21719274
000150 c1 b3 b4 bd 31 a2 8c 3d 83 31 56 3e 9e 12 1c 3e
       -0.08823348 0.06866873 0.20917325 0.15241477
000160 18 6d eb be ec b7 c7 bc 39 5e a4 be ad 76 e3 3d
       -0.4598167 -0.024379693 -0.32103136 0.1110662
000170 0f a4 88 3c e0 e8 d4 bd e6 b7 e1 3d 40 00 a9 be
       0.016679792 -0.1039598 0.11021404 -0.33008003
000180 64 d4 7c 3c 51 4c a6 3e cc c4 73 be 17 58 55 be
       0.015431497 0.324801 -0.23805541 -0.20834385
000190 7c 42 ce 3b 3c 1d 3a be 39 0d 8b 3d 1b 0a 02 3e
       0.0062945466 -0.18175215 0.067896314 0.12699167
0001a0 93 c9 a4 3e 78 53 94 3e b9 d1 9a be cc 04 25 3e
       0.3218504 0.28969932 -0.3023813 0.16115111
0001b0 31 02 45 bd 5d ad 1e be 23 af 37 3e 96 e7 59 bd
       -0.048097793 -0.1549582 0.17937903 -0.053199373
0001c0 c8 b4 54 3e 80 a8 6a bd 11 6a a7 bd 4a cf 25 3f
       0.20772088 -0.0572896 -0.081745274 0.64769423
0001d0 d8 c0 69 be 34 df cf 3d 57 9b 06 3d 32 0b c0 be
       -0.2282747 0.101499945 0.032862987 -0.3750854
0001e0 a1 b1 09 bc 13 98 69 bd d5 d4 71 3e d9 d3 8f 3e
       -0.008404166 -0.057029795 0.23616345 0.28091314
0001f0 bc f7 78 3d 75 7f e8 3e 0e 5b b2 3e 66 68 cf bc
       0.060783133 0.45409742 0.34835094 -0.025318336
000200 73 fb 37 3e 58 88 d9 bd 87 f6 73 bd 9f 7e 19 3e
       0.17967014 -0.10621709 -0.05956128 0.14989708
000210 88 50 9a bf d1 91 5b bd 88 c2 0f bd 2a 0d 40 3c
       -1.2055826 -0.05360586 -0.03509763 0.011721889
000220 39 19 91 be e0 9d 8d 3e 2d 37 ee bd e2 65 5f be
       -0.28339556 0.27659512 -0.11631618 -0.21816209
000230 31 cc 1f bf 21 8d 90 be 24 49 4b be a1 d5 a6 bd
       -0.62420946 -0.28232673 -0.1985212 -0.08146215
000240 0d 72 b6 be f4 12 52 be e0 72 5a 3e 0a 33 04 be
       -0.3563389 -0.20515043 0.21332884 -0.12910095
000250 86 81 88 3d 7f 67 92 be c1 ca 2b be b6 19 f3 bd
       0.0666533 -0.28594586 -0.16776563 -0.11870138
000260 6b 3c 6e be 45 03 86 3e 50 ea d5 bd 43 88 86 3e
       -0.23265235 0.2617437 -0.10445082 0.26275834
000270 f2 03 db 3a f7 ce 44 3e a1 ef 37 3e 00 da 53 3e
       0.001670955 0.19219576 0.17962505 0.20688629
000280 8b 30 95 be fc f7 4a 3e 56 a9 b1 3d 27 e9 80 bd
       -0.29138598 0.19821161 0.086748764 -0.0629447
000290 03 7e b3 3c 91 36 6f 3e 5a d0 63 3e 80 b7 9d bd
       0.021910673 0.23360659 0.22247449 -0.077010155
0002a0 b3 bd 4d 3e 36 4a 31 3e 01 85 2c 3e 5f a1 96 3e
       0.20091896 0.17313465 0.16847612 0.2941999
0002b0 28 4e bc 3c 3a 89 75 be b7 60 af bd 5d 1a 4e be
       0.022986487 -0.23978129 -0.08563369 -0.20127244
0002c0 70 49 80 bc 58 97 70 3d f3 02 f2 be 14 64 05 3e
       -0.015660018 0.058738083 -0.47267875 0.13026458
0002d0 cb 3f 45 3e bb b5 05 be 23 69 ed be dc 8b 03 3e
       0.19262616 -0.13057606 -0.46369275 0.12846321
0002e0 f8 5b 7c 3e 46 63 6d bf 83 91 a5 be 00 20 d4 3a
       0.24644458 -0.92729604 -0.3233758 0.0016183853
0002f0 00 ea 69 3e f9 c1 0d bc 19 76 19 be cb 3a 4c bd
       0.2284317 -0.008652204 -0.14986457 -0.049860757
000300 a9 81 3d 3d e5 28 ca bd 35 2f e8 3d 3c 95 4b be
       0.04626623 -0.09871081 0.11337129 -0.19881147
000310 6b 98 a8 3d ca 2c 50 bd ca e3 36 3d 0c 82 7c 3d
       0.082321964 -0.050823964 0.04465083 0.06164746
000320 27 43 70 3e ca 3e 67 3d c8 a0 26 be d9 db 3d be
       0.23463117 0.056456365 -0.1627227 -0.18540896
000330 60 ec 1b 3e 76 8e fc bd a5 73 4a 3e c9 6a 7b 3d
       0.15226889 -0.1233186 0.19770677 0.061381135
000340 29 2a b3 bc ad 85 65 bd d0 9e 02 bd ac 55 71 3b
       -0.02187069 -0.056035686 -0.031889737 0.0036824746
000350 33 7f 35 3e 7f 11 00 be 58 5f 71 bf a0 e2 76 be
       0.17724304 -0.12506674 -0.9428611 -0.24109888
000360 e8 e9 95 3d 41 8b 7e be fa 7b e8 3c 11 55 51 3e
       0.07320005 -0.24857809 0.02837943 0.20442607
000370 09 da 0d bd a8 05 50 3c 20 41 93 3d 5c 52 80 bd
       -0.034631763 0.012696661 0.07190156 -0.06265709
000380 1f ef a2 be 31 2e 5c 3d c0 d1 4f bd ec 3f 6a be
       -0.3182306 0.05375499 -0.050737143 -0.22875947
000390 a8 94 1b bd 01 47 4c bd ba ee 45 be f7 6e 7b 3e
       -0.037983567 -0.049872402 -0.19329348 0.24554048
0003a0 38 5e db bd fd 07 fc bd 1a b4 80 bd 9d 7a 20 3e
       -0.1071133 -0.12306211 -0.06284352 0.15671773
0003b0 43 ae 3c be 4b 98 7b 3e ce e5 91 3e 19 2b b3 be
       -0.1842585 0.24569814 0.2849564 -0.34993818
0003c0 34 3d 48 bd 02 24 3f 3e 96 84 ac be c7 d2 25 be
       -0.048886493 0.1866608 -0.33694905 -0.16193686
0003d0 d5 36 21 3d bf f0 ab 3e ea 17 7a be 59 25 34 3d
       0.039358933 0.33582112 -0.24423185 0.04398093
0003e0 e6 22 0f 3d 26 a0 84 3e 1f 08 65 3d c6 78 93 bd
       0.03494539 0.25903434 0.055915948 -0.0720077
0003f0 73 82 36 bd ee 5b 1f bc 8d 07 0a 3e 7f 1e eb 3b
       -0.044558 -0.009726508 0.13479443 0.0071752663
